…
g and enc_output.dtype != paddle.float16:\r\n            enc_output = paddle.cast(enc_output, dtype=\"float16\")\r\n        elif not self.use_fp16_decoding and enc_output.dtype != paddle.float32:\r\n            enc_output = paddle.cast(enc_output, dtype=\"float32\")\r\n        mem_seq_lens = paddle.ones([enc_output.shape[0]],paddle.int32)*enc_output.shape[1]\r\n        ids = self.decoding(enc_output, mem_seq_lens, trg_word=trg_word)\r\n        return ids\r\n```\r\n\r\nMy decoder is:\r\n\r\n```\r\nTransformerDecoder(\r\n  (layers): LayerList(\r\n    (0): TransformerDecoderLayer(\r\n      (norm1): LayerNorm(normalized_shape=[384], epsilon=1e-05)\r\n      (self_attn): MultiHeadAttention(\r\n        (q_proj): Linear(in_features=384, out_features=384, dtype=float32)\r\n        (k_proj): Linear(in_features=384, out_features=384, dtype=float32)\r\n        (v_proj): Linear(in_features=384, out_features=384, dtype=float32)\r\n        (out_proj): Linear(in_features=384, out_features=384, dtype=float32)\r\n      )\r\n      (dropout1): Dropout(p=0.0, axis=None, mode=upscale_in_train)\r\n      (norm2): LayerNorm(normalized_shape=[384], epsilon=1e-05)\r\n      (cross_attn): MultiHeadAttention(\r\n        (q_proj): Linear(in_features=384, out_features=384, dtype=float32)\r\n        (k_proj): Linear(in_features=384, out_features=384, dtype=float32)\r\n        (v_proj): Linear(in_features=384, out_features=384, dtype=float32)\r\n        (out_proj): Linear(in_features=384, out_features=384, dtype=float32)\r\n      )\r\n      (dropout2): Dropout(p=0.0, axis=None, mode=upscale_in_train)\r\n      (norm3): LayerNorm(normalized_shape=[384], epsilon=1e-05)\r\n      (linear1): Linear(in_features=384, out_features=1024, dtype=float32)\r\n      (activation): ReLU()\r\n      (dropout): Dropout(p=0.0, axis=None, mode=upscale_in_train)\r\n      (linear2): Linear(in_features=1024, out_features=384, dtype=float32)\r\n      (dropout3): Dropout(p=0.0, axis=None, mode=upscale_in_train)\r\n    )\r\n    (1): TransformerDecoderLayer(\r\n      (norm1): LayerNorm(normalized_shape=[384], epsilon=1e-05)\r\n      (self_attn): MultiHeadAttention(\r\n        (q_proj): Linear(in_features=384, out_features=384, dtype=float32)\r\n        (k_proj): Linear(in_features=384, out_features=384, dtype=float32)\r\n        (v_proj): Linear(in_features=384, out_features=384, dtype=float32)\r\n        (out_proj): Linear(in_features=384, out_features=384, dtype=float32)\r\n      )\r\n      (dropout1): Dropout(p=0.0, axis=None, mode=upscale_in_train)\r\n      (norm2): LayerNorm(normalized_shape=[384], epsilon=1e-05)\r\n      (cross_attn): MultiHeadAttention(\r\n        (q_proj): Linear(in_features=384, out_features=384, dtype=float32)\r\n        (k_proj): Linear(in_features=384, out_features=384, dtype=float32)\r\n        (v_proj): Linear(in_features=384, out_features=384, dtype=float32)\r\n        (out_proj): Linear(in_features=384, out_features=384, dtype=float32)\r\n      )\r\n      (dropout2): Dropout(p=0.0, axis=None, mode=upscale_in_train)\r\n      (norm3): LayerNorm(normalized_shape=[384], epsilon=1e-05)\r\n      (linear1): Linear(in_features=384, out_features=1024, dtype=float32)\r\n      (activation): ReLU()\r\n      (dropout): Dropout(p=0.0, axis=None, mode=upscale_in_train)\r\n      (linear2): Linear(in_features=1024, out_features=384, dtype=float32)\r\n      (dropout3): Dropout(p=0.0, axis=None, mode=upscale_in_train)\r\n    )\r\n    (2): TransformerDecoderLayer(\r\n      (norm1): LayerNorm(normalized_shape=[384], epsilon=1e-05)\r\n      (self_attn): MultiHeadAttention(\r\n        (q_proj): Linear(in_features=384, out_features=384, dtype=float32)\r\n        (k_proj): Linear(in_features=384, out_features=384, dtype=float32)\r\n        (v_proj): Linear(in_features=384, out_features=384, dtype=float32)\r\n        (out_proj): Linear(in_features=384, out_features=384, dtype=float32)\r\n      )\r\n      (dropout1): Dropout(p=0.0, axis=None, mode=upscale_in_train)\r\n      (norm2): LayerNorm(normalized_shape=[384], epsilon=1e-05)\r\n      (cross_attn): MultiHeadAttention(\r\n        (q_proj): Linear(in_features=384, out_features=384, dtype=float32)\r\n        (k_proj): Linear(in_features=384, out_features=384, dtype=float32)\r\n        (v_proj): Linear(in_features=384, out_features=384, dtype=float32)\r\n        (out_proj): Linear(in_features=384, out_features=384, dtype=float32)\r\n      )\r\n      (dropout2): Dropout(p=0.0, axis=None, mode=upscale_in_train)\r\n      (norm3): LayerNorm(normalized_shape=[384], epsilon=1e-05)\r\n      (linear1): Linear(in_features=384, out_features=1024, dtype=float32)\r\n      (activation): ReLU()\r\n      (dropout): Dropout(p=0.0, axis=None, mode=upscale_in_train)\r\n      (linear2): Linear(in_features=1024, out_features=384, dtype=float32)\r\n      (dropout3): Dropout(p=0.0, axis=None, mode=upscale_in_train)\r\n    )\r\n    (3): TransformerDecoderLayer(\r\n      (norm1): LayerNorm(normalized_shape=[384], epsilon=1e-05)\r\n      (self_attn): MultiHeadAttention(\r\n        (q_proj): Linear(in_features=384, out_features=384, dtype=float32)\r\n        (k_proj): Linear(in_features=384, out_features=384, dtype=float32)\r\n        (v_proj): Linear(in_features=384, out_features=384, dtype=float32)\r\n        (out_proj): Linear(in_features=384, out_features=384, dtype=float32)\r\n      )\r\n      (dropout1): Dropout(p=0.0, axis=None, mode=upscale_in_train)\r\n      (norm2): LayerNorm(normalized_shape=[384], epsilon=1e-05)\r\n      (cross_attn): MultiHeadAttention(\r\n        (q_proj): Linear(in_features=384, out_features=384, dtype=float32)\r\n        (k_proj): Linear(in_features=384, out_features=384, dtype=float32)\r\n        (v_proj): Linear(in_features=384, out_features=384, dtype=float32)\r\n        (out_proj): Linear(in_features=384, out_features=384, dtype=float32)\r\n      )\r\n      (dropout2): Dropout(p=0.0, axis=None, mode=upscale_in_train)\r\n      (norm3): LayerNorm(normalized_shape=[384], epsilon=1e-05)\r\n      (linear1): Linear(in_features=384, out_features=1024, dtype=float32)\r\n      (activation): ReLU()\r\n      (dropout): Dropout(p=0.0, axis=None, mode=upscale_in_train)\r\n      (linear2): Linear(in_features=1024, out_features=384, dtype=float32)\r\n      (dropout3): Dropout(p=0.0, axis=None, mode=upscale_in_train)\r\n    )\r\n    (4): TransformerDecoderLayer(\r\n      (norm1): LayerNorm(normalized_shape=[384], epsilon=1e-05)\r\n      (self_attn): MultiHeadAttention(\r\n        (q_proj): Linear(in_features=384, out_features=384, dtype=float32)\r\n        (k_proj): Linear(in_features=384, out_features=384, dtype=float32)\r\n        (v_proj): Linear(in_features=384, out_features=384, dtype=float32)\r\n        (out_proj): Linear(in_features=384, out_features=384, dtype=float32)\r\n      )\r\n      (dropout1): Dropout(p=0.0, axis=None, mode=upscale_in_train)\r\n      (norm2): LayerNorm(normalized_shape=[384], epsilon=1e-05)\r\n      (cross_attn): MultiHeadAttention(\r\n        (q_proj): Linear(in_features=384, out_features=384, dtype=float32)\r\n        (k_proj): Linear(in_features=384, out_features=384, dtype=float32)\r\n        (v_proj): Linear(in_features=384, out_features=384, dtype=float32)\r\n        (out_proj): Linear(in_features=384, out_features=384, dtype=float32)\r\n      )\r\n      (dropout2): Dropout(p=0.0, axis=None, mode=upscale_in_train)\r\n      (norm3): LayerNorm(normalized_shape=[384], epsilon=1e-05)\r\n      (linear1): Linear(in_features=384, out_features=1024, dtype=float32)\r\n      (activation): ReLU()\r\n      (dropout): Dropout(p=0.0, axis=None, mode=upscale_in_train)\r\n      (linear2): Linear(in_features=1024, out_features=384, dtype=float32)\r\n      (dropout3): Dropout(p=0.0, axis=None, mode=upscale_in_train)\r\n    )\r\n    (5): TransformerDecoderLayer(\r\n      (norm1): LayerNorm(normalized_shape=[384], epsilon=1e-05)\r\n      (self_attn): MultiHeadAttention(\r\n        (q_proj): Linear(in_features=384, out_features=384, dtype=float32)\r\n        (k_proj): Linear(in_features=384, out_features=384, dtype=float32)\r\n        (v_proj): Linear(in_features=384, out_features=384, dtype=float32)\r\n        (out_proj): Linear(in_features=384, out_features=384, dtype=float32)\r\n      )\r\n      (dropout1): Dropout(p=0.0, axis=None, mode=upscale_in_train)\r\n      (norm2): LayerNorm(normalized_shape=[384], epsilon=1e-05)\r\n      (cross_attn): MultiHeadAttention(\r\n        (q_proj): Linear(in_features=384, out_features=384, dtype=float32)\r\n        (k_proj): Linear(in_features=384, out_features=384, dtype=float32)\r\n        (v_proj): Linear(in_features=384, out_features=384, dtype=float32)\r\n        (out_proj): Linear(in_features=384, out_features=384, dtype=float32)\r\n      )\r\n      (dropout2): Dropout(p=0.0, axis=None, mode=upscale_in_train)\r\n      (norm3): LayerNorm(normalized_shape=[384], epsilon=1e-05)\r\n      (linear1): Linear(in_features=384, out_features=1024, dtype=float32)\r\n      (activation): ReLU()\r\n      (dropout): Dropout(p=0.0, axis=None, mode=upscale_in_train)\r\n      (linear2): Linear(in_features=1024, out_features=384, dtype=float32)\r\n      (dropout3): Dropout(p=0.0, axis=None, mode=upscale_in_train)\r\n    )\r\n  )\r\n  (norm): LayerNorm(normalized_shape=[384], epsilon=1e-05)\r\n)\r\n```\r\n",
        "reactions": {
            "url": "https://api.github.com/repos/PaddlePaddle/PaddleNLP/issues/1917/reactions",
            "total_count": 0,
            "+1": 0,
            "-1": 0,
            "laugh": 0,
            "hooray": 0,
            "confused": 0,
            "heart": 0,
            "rocket": 0,
            "eyes": 0
        },
…
