…
        "body": "```\r\n(InvalidArgument) The value (384) of the non-singleton dimension does not match the corresponding value (256) in shape for expand_v2 op.\r\n  [Hint: Expected vec_in_dims[i] == expand_shape[i], but received vec_in_dims[i]:384 != expand_shape[i]:256.] (at /paddle/paddle/fluid/operators/expand_v2_op.h:172)\r\n  [operator < expand_v2 > error]\r\n\r\n```\r\npaddlenlp                          2.2.5\r\npaddlepaddle-gpu                   2.2.2.post112\r\n\r\nthis is my decoder\r\n```\r\nTransformerDecoder(\r\n  (layers): LayerList(\r\n    (0): TransformerDecoderLayer(\r\n      (norm1): LayerNorm(normalized_shape=[256], epsilon=1e-05)\r\n      (self_attn): MultiHeadAttention(\r\n        (q_proj): Linear(in_features=256, out_features=256, dtype=float32)\r\n        (k_proj): Linear(in_features=256, out_features=256, dtype=float32)\r\n        (v_proj): Linear(in_features=256, out_features=256, dtype=float32)\r\n        (out_proj): Linear(in_features=256, out_features=256, dtype=float32)\r\n      )\r\n      (dropout1): Dropout(p=0.0, axis=None, mode=upscale_in_train)\r\n      (norm2): LayerNorm(normalized_shape=[256], epsilon=1e-05)\r\n      (cross_attn): MultiHeadAttention(\r\n        (q_proj): Linear(in_features=256, out_features=256, dtype=float32)\r\n        (k_proj): Linear(in_features=384, out_features=256, dtype=float32)\r\n        (v_proj): Linear(in_features=384, out_features=256, dtype=float32)\r\n        (out_proj): Linear(in_features=256, out_features=256, dtype=float32)\r\n      )\r\n      (dropout2): Dropout(p=0.0, axis=None, mode=upscale_in_train)\r\n      (norm3): LayerNorm(normalized_shape=[256], epsilon=1e-05)\r\n      (linear1): Linear(in_features=256, out_features=1024, dtype=float32)\r\n      (activation): ReLU()\r\n      (dropout): Dropout(p=0.0, axis=None, mode=upscale_in_train)\r\n      (linear2): Linear(in_features=1024, out_features=256, dtype=float32)\r\n      (dropout3): Dropout(p=0.0, axis=None, mode=upscale_in_train)\r\n    )\r\n    (1): TransformerDecoderLayer(\r\n      (norm1): LayerNorm(normalized_shape=[256], epsilon=1e-05)\r\n      (self_attn): MultiHeadAttention(\r\n        (q_proj): Linear(in_features=256, out_features=256, dtype=float32)\r\n        (k_proj): Linear(in_features=256, out_features=256, dtype=float32)\r\n        (v_proj): Linear(in_features=256, out_features=256, dtype=float32)\r\n        (out_proj): Linear(in_features=256, out_features=256, dtype=float32)\r\n      )\r\n      (dropout1): Dropout(p=0.0, axis=None, mode=upscale_in_train)\r\n      (norm2): LayerNorm(normalized_shape=[256], epsilon=1e-05)\r\n      (cross_attn): MultiHeadAttention(\r\n        (q_proj): Linear(in_features=256, out_features=256, dtype=float32)\r\n        (k_proj): Linear(in_features=384, out_features=256, dtype=float32)\r\n        (v_proj): Linear(in_features=384, out_features=256, dtype=float32)\r\n        (out_proj): Linear(in_features=256, out_features=256, dtype=float32)\r\n      )\r\n      (dropout2): Dropout(p=0.0, axis=None, mode=upscale_in_train)\r\n      (norm3): LayerNorm(normalized_shape=[256], epsilon=1e-05)\r\n      (linear1): Linear(in_features=256, out_features=1024, dtype=float32)\r\n      (activation): ReLU()\r\n      (dropout): Dropout(p=0.0, axis=None, mode=upscale_in_train)\r\n      (linear2): Linear(in_features=1024, out_features=256, dtype=float32)\r\n      (dropout3): Dropout(p=0.0, axis=None, mode=upscale_in_train)\r\n    )\r\n    (2): TransformerDecoderLayer(\r\n      (norm1): LayerNorm(normalized_shape=[256], epsilon=1e-05)\r\n      (self_attn): MultiHeadAttention(\r\n        (q_proj): Linear(in_features=256, out_features=256, dtype=float32)\r\n        (k_proj): Linear(in_features=256, out_features=256, dtype=float32)\r\n        (v_proj): Linear(in_features=256, out_features=256, dtype=float32)\r\n        (out_proj): Linear(in_features=256, out_features=256, dtype=float32)\r\n      )\r\n      (dropout1): Dropout(p=0.0, axis=None, mode=upscale_in_train)\r\n      (norm2): LayerNorm(normalized_shape=[256], epsilon=1e-05)\r\n      (cross_attn): MultiHeadAttention(\r\n        (q_proj): Linear(in_features=256, out_features=256, dtype=float32)\r\n        (k_proj): Linear(in_features=384, out_features=256, dtype=float32)\r\n        (v_proj): Linear(in_features=384, out_features=256, dtype=float32)\r\n        (out_proj): Linear(in_features=256, out_features=256, dtype=float32)\r\n      )\r\n      (dropout2): Dropout(p=0.0, axis=None, mode=upscale_in_train)\r\n      (norm3): LayerNorm(normalized_shape=[256], epsilon=1e-05)\r\n      (linear1): Linear(in_features=256, out_features=1024, dtype=float32)\r\n      (activation): ReLU()\r\n      (dropout): Dropout(p=0.0, axis=None, mode=upscale_in_train)\r\n      (linear2): Linear(in_features=1024, out_features=256, dtype=float32)\r\n      (dropout3): Dropout(p=0.0, axis=None, mode=upscale_in_train)\r\n    )\r\n    (3): TransformerDecoderLayer(\r\n      (norm1): LayerNorm(normalized_shape=[256], epsilon=1e-05)\r\n      (self_attn): MultiHeadAttention(\r\n        (q_proj): Linear(in_features=256, out_features=256, dtype=float32)\r\n        (k_proj): Linear(in_features=256, out_features=256, dtype=float32)\r\n        (v_proj): Linear(in_features=256, out_features=256, dtype=float32)\r\n        (out_proj): Linear(in_features=256, out_features=256, dtype=float32)\r\n      )\r\n      (dropout1): Dropout(p=0.0, axis=None, mode=upscale_in_train)\r\n      (norm2): LayerNorm(normalized_shape=[256], epsilon=1e-05)\r\n      (cross_attn): MultiHeadAttention(\r\n        (q_proj): Linear(in_features=256, out_features=256, dtype=float32)\r\n        (k_proj): Linear(in_features=384, out_features=256, dtype=float32)\r\n        (v_proj): Linear(in_features=384, out_features=256, dtype=float32)\r\n        (out_proj): Linear(in_features=256, out_features=256, dtype=float32)\r\n      )\r\n      (dropout2): Dropout(p=0.0, axis=None, mode=upscale_in_train)\r\n      (norm3): LayerNorm(normalized_shape=[256], epsilon=1e-05)\r\n      (linear1): Linear(in_features=256, out_features=1024, dtype=float32)\r\n      (activation): ReLU()\r\n      (dropout): Dropout(p=0.0, axis=None, mode=upscale_in_train)\r\n      (linear2): Linear(in_features=1024, out_features=256, dtype=float32)\r\n      (dropout3): Dropout(p=0.0, axis=None, mode=upscale_in_train)\r\n    )\r\n    (4): TransformerDecoderLayer(\r\n      (norm1): LayerNorm(normalized_shape=[256], epsilon=1e-05)\r\n      (self_attn): MultiHeadAttention(\r\n        (q_proj): Linear(in_features=256, out_features=256, dtype=float32)\r\n        (k_proj): Linear(in_features=256, out_features=256, dtype=float32)\r\n        (v_proj): Linear(in_features=256, out_features=256, dtype=float32)\r\n        (out_proj): Linear(in_features=256, out_features=256, dtype=float32)\r\n      )\r\n      (dropout1): Dropout(p=0.0, axis=None, mode=upscale_in_train)\r\n      (norm2): LayerNorm(normalized_shape=[256], epsilon=1e-05)\r\n      (cross_attn): MultiHeadAttention(\r\n        (q_proj): Linear(in_features=256, out_features=256, dtype=float32)\r\n        (k_proj): Linear(in_features=384, out_features=256, dtype=float32)\r\n        (v_proj): Linear(in_features=384, out_features=256, dtype=float32)\r\n        (out_proj): Linear(in_features=256, out_features=256, dtype=float32)\r\n      )\r\n      (dropout2): Dropout(p=0.0, axis=None, mode=upscale_in_train)\r\n      (norm3): LayerNorm(normalized_shape=[256], epsilon=1e-05)\r\n      (linear1): Linear(in_features=256, out_features=1024, dtype=float32)\r\n      (activation): ReLU()\r\n      (dropout): Dropout(p=0.0, axis=None, mode=upscale_in_train)\r\n      (linear2): Linear(in_features=1024, out_features=256, dtype=float32)\r\n      (dropout3): Dropout(p=0.0, axis=None, mode=upscale_in_train)\r\n    )\r\n    (5): TransformerDecoderLayer(\r\n      (norm1): LayerNorm(normalized_shape=[256], epsilon=1e-05)\r\n      (self_attn): MultiHeadAttention(\r\n        (q_proj): Linear(in_features=256, out_features=256, dtype=float32)\r\n        (k_proj): Linear(in_features=256, out_features=256, dtype=float32)\r\n        (v_proj): Linear(in_features=256, out_features=256, dtype=float32)\r\n        (out_proj): Linear(in_features=256, out_features=256, dtype=float32)\r\n      )\r\n      (dropout1): Dropout(p=0.0, axis=None, mode=upscale_in_train)\r\n      (norm2): LayerNorm(normalized_shape=[256], epsilon=1e-05)\r\n      (cross_attn): MultiHeadAttention(\r\n        (q_proj): Linear(in_features=256, out_features=256, dtype=float32)\r\n        (k_proj): Linear(in_features=384, out_features=256, dtype=float32)\r\n        (v_proj): Linear(in_features=384, out_features=256, dtype=float32)\r\n        (out_proj): Linear(in_features=256, out_features=256, dtype=float32)\r\n      )\r\n      (dropout2): Dropout(p=0.0, axis=None, mode=upscale_in_train)\r\n      (norm3): LayerNorm(normalized_shape=[256], epsilon=1e-05)\r\n      (linear1): Linear(in_features=256, out_features=1024, dtype=float32)\r\n      (activation): ReLU()\r\n      (dropout): Dropout(p=0.0, axis=None, mode=upscale_in_train)\r\n      (linear2): Linear(in_features=1024, out_features=256, dtype=float32)\r\n      (dropout3): Dropout(p=0.0, axis=None, mode=upscale_in_train)\r\n    )\r\n  )\r\n  (norm): LayerNorm(normalized_shape=[256], epsilon=1e-05)\r\n)\r\n```\r\n",
        "reactions": {
            "url": "https://api.github.com/repos/PaddlePaddle/PaddleNLP/issues/1906/reactions",
            "total_count": 0,
            "+1": 0,
            "-1": 0,
            "laugh": 0,
            "hooray": 0,
            "confused": 0,
            "heart": 0,
            "rocket": 0,
            "eyes": 0
        },
…
